mlp/mlp.pth (torch, 40688 bytes, 4 tensors)

layers.0.weight f4 [64, 126]
0	0x3e93490d	0.2876667
1	0xbe70a8e2	-0.23501924
2	0xbf6b2858	-0.91858435
3	0x3e8e0e03	0.27745065
4	0xbe99cd96	-0.30039662
5	0x3ffd725d	1.9800526
6	0x3e086711	0.13320567
7	0xbeb52b8d	-0.3538479
8	0x3fbb5288	1.4634562
9	0x3e036008	0.12829602
10	0xbebcbb84	-0.36861813
11	0x3f2203ae	0.63286865
12	0xbcd6446b	-0.026155671
13	0xbf38d501	-0.7220002
14	0x3e7e4879	0.24832334
15	0x3e20bb9a	0.15696564
16	0xbe9cdc15	-0.3063666
17	0x403015a3	2.7513206
18	0x3e63100a	0.22174087
19	0xbde04453	-0.10950532
20	0xbecaecdb	-0.3963383
21	0x3e206eaf	0.15667222
22	0x3e85d6a4	0.2614032
23	0xbf474967	-0.7784638
24	0x3e0f75cb	0.14009778
25	0x3f5acd85	0.8546985
26	0xbf0f3f9b	-0.5595643
27	0x3e12311e	0.14276549
28	0xbe9d39b1	-0.30708078
29	0x3fb6c887	1.4279946
30	0x3dd80880	0.10548496
31	0x3c972009	0.018447893
32	0xbf269afd	-0.65080243
33	0x3ce40a73	0.027837014
34	0x3f1d9a30	0.61563396
35	0xbda28383	-0.0793524
36	0x3d86b700	0.06577873
37	0x3f9c58ab	1.2214559
38	0x3f0ae33c	0.5425298
39	0x3e2e59b8	0.17026412
40	0xbef874ed	-0.48526707
41	0xbc884bbd	-0.016637677
42	0x3d50d2ca	0.050982274
43	0xbe9b9c1c	-0.3039254
44	0x3e3f6add	0.18693109
45	0x3dce2007	0.100647025
46	0xbd96282b	-0.0733188
47	0x3f9f514f	1.2446688
48	0x3e47feee	0.19530842
49	0x3d6325c5	0.05545594
50	0x4011d79b	2.2787845
51	0x3e3cd441	0.18440343
52	0xbf12a014	-0.5727551
53	0xbf2c6108	-0.6733556
54	0x3d39dca8	0.04537645
55	0xbf05136a	-0.5198275
56	0x3dcaea53	0.09907975
57	0x3d89738e	0.067114934
58	0xbed454c8	-0.41470933
59	0x3ef3123d	0.47474852
60	0x3e1c05b1	0.15236546
61	0xbeb6cf1b	-0.35704884
62	0x3f7619c0	0.9613304
63	0x3e43fc7a	0.19139281
64	0x3f31ea3d	0.69498044
65	0x3fa0dc3a	1.2567208
66	0x3e64725e	0.22309253
67	0x3f120f7c	0.5705488
68	0xc01fcb5c	-2.496787
69	0xbcf642a7	-0.03006108
70	0x3e8193d4	0.25308096
71	0xbfdd3dfd	-1.7284542
72	0xbe8043c7	-0.2505171
73	0xbe261564	-0.16219097
74	0xbf17d457	-0.5930838
75	0xbee8bbf0	-0.45455885
76	0xbe8b2b50	-0.27181482
77	0x3e904a03	0.28181466
78	0x3eb726b1	0.35771707
79	0x3f10ade9	0.56515366
80	0xbfabb7af	-1.3415431
81	0x3e98d717	0.298516
82	0x3e37e187	0.17957126
83	0xbe8b93b5	-0.2726113
84	0x3d469248	0.04847935
85	0xbee71f06	-0.45140857
86	0x3de51e10	0.111873746
87	0xbc885906	-0.016644012
88	0xbf84b424	-1.0367475
89	0x3e457019	0.19281043
90	0x3e620541	0.22072317
91	0x3f1a886f	0.6036443
92	0x3e657dc9	0.22411264
93	0x3d9b16a3	0.07572677
94	0xbe1a9ab2	-0.15098074
95	0x3f0af6fe	0.5428313
96	0xbea30f29	-0.31847504
97	0xbf5ea164	-0.8696501
98	0x3f070618	0.52743673
99	0xbf0b3ff3	-0.54394454
100	0xbfb25010	-1.3930683
101	0x3f061aa6	0.5238441
102	0xbc286d07	-0.0102799
103	0x3f1e4a9e	0.61832607
104	0x3f8deaca	1.1087277
105	0xbd9b7bf0	-0.075919986
106	0x3e99b5cc	0.30021513
107	0x3e04c9f9	0.12967671
108	0xbeab9477	-0.33511707
109	0x3e438704	0.19094473
110	0x3c4c4eba	0.012469942
111	0xbeddce0e	-0.4332127
112	0xbd061291	-0.03273255
113	0x3eadf6b9	0.33977297
114	0xbe2b591e	-0.16733214
115	0x3f2a1428	0.66437006
116	0x3fc118a8	1.508565
117	0xbe1d7310	-0.15375924
118	0x3f03f01e	0.51538265
119	0x3f2885bd	0.6582907
120	0xbea2c3a5	-0.3178989
121	0x3f0e5acf	0.5560731
122	0x3f646ac5	0.8922542
123	0xbede6625	-0.43437305
124	0x3f3977b0	0.72448254
125	0x3fa3af37	1.2787846
126	0xbd8cb53a	-0.06870504
127	0x3d1adf08	0.037810355
128	0x3ce7953f	0.028269408
129	0xbd0d5953	-0.034509014
130	0x3c450a19	0.012026333
131	0x3da3cc59	0.079979606
132	0xbaf3127d	-0.0018544939
133	0xbd8def61	-0.069304235
134	0x3db23037	0.087006025
135	0x3d65fa6a	0.056147017
136	0xbb8828a9	-0.0041552377
137	0x3c912830	0.017719358
138	0x3ce24cdf	0.027624546
139	0x3cff7097	0.031181617
140	0xbcdc0637	-0.026858432
141	0xbde0512f	-0.109529845
142	0xbad028e7	-0.001588133
143	0x3db55419	0.08853931
144	0xbc8f81ff	-0.017518042
145	0x3cf66c6c	0.030080996
146	0x3d237317	0.03990468
147	0x3d6ef0d2	0.058335133
148	0xbc456d89	-0.012050041
149	0xbc3136fa	-0.01081633
150	0xbc8154f5	-0.015787581
151	0x3cdc0275	0.02685664
152	0x3cfadea4	0.030623741
153	0xbd92d7f8	-0.07170099
154	0xbb8079c6	-0.0039207665
155	0x3dabb133	0.083834074
156	0x3cdeea7a	0.027211417
157	0x3ca793e2	0.020456258
158	0x3d303c63	0.04302634
159	0xbdbcd26b	-0.092198215
160	0xbdac6934	-0.084185034
161	0x3d9199aa	0.07109387
162	0xbb992975	-0.0046741315
163	0xbda2ce4e	-0.07949506
164	0x3bf40f41	0.0074481075
165	0x3be7bf6b	0.0070723793
166	0xbdad49dc	-0.08461353
167	0xbc8dd662	-0.01731414
168	0x3d041147	0.03224304
169	0x3d55487d	0.052071083
170	0x3cae7a1a	0.021298457
171	0x3d40a793	0.04703481
172	0x3cf786ac	0.030215584
173	0x3c9b99a7	0.018994166
174	0xbc95832c	-0.018251024
175	0xbaa46200	-0.0012541413
176	0xbd0271c5	-0.03184678
177	0xbc0f7219	-0.00875523
178	0x3d65c2ca	0.05609397
179	0xbd4f1c19	-0.050563905
180	0xbc62a423	-0.013833079
181	0x3d4fbd85	0.05071785
182	0x3d5f44f5	0.054509122
183	0xbd2b0a0b	-0.041757625
184	0xbd97c9a8	-0.0741151
185	0xbd089587	-0.033345725
186	0x3bb84849	0.0056238514
187	0x3ceb5046	0.0287248
188	0xbbd976ce	-0.006636477
189	0x3ea24d84	0.31699765
190	0xbec031af	-0.37537906
191	0xbea41b51	-0.3205209
192	0x3e2a42a9	0.16626991
193	0xbe738499	-0.2378105
194	0x3fef3178	1.8686972
195	0x3e7742ba	0.24146548
196	0xbcf65df1	-0.030074092
197	0x3fda4305	1.7051703
198	0x3e8230ce	0.2542786
199	0x3e2e2166	0.17004928
200	0x3fa5e2e8	1.2959871
201	0x3d862f0a	0.06551941
202	0x3e59f1d6	0.2128366
203	0x3f89c4e5	1.0763212
204	0x3ea2200d	0.31665078
205	0xbdd725a4	-0.10505226
206	0x40171995	2.3609364
207	0x3eb48ef8	0.35265326
208	0xbe0ba9d0	-0.13638997
209	0x3fd3e492	1.6554129
210	0x3e011974	0.12607366
211	0xbd9d89e5	-0.07692317
212	0x3fa55784	1.2917333
213	0x3e216eec	0.1576497
214	0xbeb8439a	-0.35989076
215	0x3f6fd742	0.9368783
216	0x3ed1b938	0.40961623
217	0xbe32207d	-0.17395206
218	0x3f98f5c9	1.1950008
219	0x3efefa1a	0.49800187
220	0x3e135948	0.14389527
221	0x3dfa1e51	0.12212814
222	0x3f1591a0	0.5842533
223	0x3eb1db05	0.3473741
224	0xbe1bb086	-0.15204057
225	0x3ef8dc3a	0.4860552
226	0x3f1deb9a	0.61687624
227	0x3d15e73c	0.036597475
228	0x3f0fed2e	0.5622128
229	0xbe254d97	-0.1614288
230	0xbd9b1ef4	-0.07574263
231	0x3f056e40	0.52121353
232	0xbce159ad	-0.027508581
233	0xbf20d511	-0.62825114
234	0x3f2cccd8	0.67500067
235	0x3ee8ea41	0.45491222
236	0xbd8a9245	-0.0676618
237	0x3f3015e8	0.68783426
238	0x3f2a6c66	0.6657165
239	0x3eca152f	0.39469287
240	0x3f2a745a	0.6658379
241	0xbe6ecf43	-0.23321252
242	0xbf0389cf	-0.51382154
243	0x3f4c0d6b	0.79707974
244	0x3cc9b764	0.02462358
245	0xbf29c659	-0.6631828
246	0x3f5b3d80	0.85640717
247	0x3ed330bd	0.41248122
248	0xbe604a52	-0.21903351
249	0x3f775558	0.966146
250	0x3f3f5324	0.7473624
251	0x3e427b82	0.18992427
252	0xbd9d2024	-0.07672146
253	0xbd055d5b	-0.032559734
254	0x3d0e09d2	0.034677334
255	0xbd9ad88b	-0.075608335

layers.0.bias f4 [64]
0	0x3e8bdac1	0.27315333
1	0xbe3bbdbe	-0.183341
2	0x3ecbcd6e	0.39805168
3	0x3dfed34e	0.12442647
4	0xbd96797c	-0.0734739
5	0x3ec3fb99	0.3827789
6	0xbc8af31d	-0.016961629
7	0xbdbf1825	-0.09330777
8	0x3e2b9269	0.1675507
9	0x3e2783b6	0.16358837
10	0xbcbb7fbe	-0.02288806
11	0xbd5ce46e	-0.053928785
12	0xbdfee4b3	-0.12445965
13	0xbd672f3f	-0.05644154
14	0xbea053c5	-0.3131391
15	0xbd92aabd	-0.07161472
16	0x3eb6a0cf	0.35669562
17	0x3f38c5f7	0.7217707
18	0x3e9715fd	0.29508963
19	0x3eaca654	0.33720648
20	0x3f8c8333	1.0977539
21	0xbe584d93	-0.21123342
22	0x3efe7dcc	0.4970535
23	0xbd28cd34	-0.041211322
24	0x3e47b57f	0.19502829
25	0xbe375883	-0.17904858
26	0x3f4fdf77	0.81200355
27	0xbe0b67ce	-0.13613817
28	0xbd5da286	-0.054110073
29	0x3ecc8caf	0.39951083
30	0xbd5533ab	-0.052051228
31	0x3e23fded	0.16014834
32	0xbe104419	-0.14088477
33	0x3e7b71f9	0.24555196
34	0xbd9520cb	-0.072816454
35	0x3e705a0d	0.23471852
36	0xbd8e9456	-0.069618866
37	0xbd4bad7c	-0.049725994
38	0x3e430fa2	0.19048932
39	0xbcd50d29	-0.026007252
40	0xbc8f07ee	-0.017459836
41	0x3ec379fb	0.38179
42	0x3e53bd18	0.20677602
43	0xbdae5a19	-0.085132785
44	0xbd9bf2bc	-0.07614657
45	0xbbca971d	-0.006182565
46	0x3de0e9d5	0.109821
47	0xbd229fd5	-0.03970321
48	0x3e7552a8	0.23957312
49	0x3e96e0c9	0.29468372
50	0x3f118623	0.568453
51	0x3e3ba1a7	0.18323384
52	0xbd149477	-0.0362744
53	0xbd276d03	-0.040875446
54	0x3e8a56d2	0.27019364
55	0x3e5e1b62	0.21690133
56	0x3e7770b0	0.2416408
57	0x3ef1fdc8	0.47263932
58	0xbc9f5c0d	-0.019453073
59	0x3ee2ead1	0.44319776
60	0xbd547ae7	-0.05187502
61	0xbd9dedb4	-0.07711354
62	0x3f313de7	0.6923508
63	0xbd413a5c	-0.047174796

layers.2.weight f4 [24, 64]
0	0xbd3a17b6	-0.04543277
1	0x3b0aeec5	0.0021199447
2	0xc04bbb8e	-3.1833224
3	0xbefcb2d4	-0.49355185
4	0xbdc68f1c	-0.09695265
5	0xc035b923	-2.8394248
6	0x3edaa2f8	0.4270246
7	0x3e82863a	0.25493032
8	0xbf2314eb	-0.63703793
9	0x3eb67336	0.35634774
10	0xbded724e	-0.115940675
11	0x3eb067eb	0.34454283
12	0xbe6a5c21	-0.22886707
13	0x3da5eee4	0.081022054
14	0xbeaa2271	-0.33229402
15	0xbcc92ecc	-0.024558447
16	0x3edba881	0.42901996
17	0x3ced5a05	0.028973589
18	0x3f343757	0.7039694
19	0xbf221427	-0.63312
20	0xbf6df7ae	-0.92956054
21	0xbdbadefb	-0.091245614
22	0x3f238398	0.6387267
23	0xbde2cdd2	-0.11074413
24	0x3f25b137	0.64723533
25	0x3f2fc274	0.68656087
26	0xbf853b96	-1.0408809
27	0x3eb8c118	0.3608482
28	0xbe95bf8a	-0.29247695
29	0x3f508726	0.8145622
30	0xbd670d43	-0.05640913
31	0xbf80e1a2	-1.0068858
32	0xbeedeeb4	-0.4647118
33	0x3e896875	0.26837507
34	0xbdf0f5b8	-0.11765617
35	0x3f1cadd0	0.61202717
36	0x3d89db08	0.0673123
37	0x3e4ca39d	0.19984289
38	0xbf10a3d5	-0.5649999
39	0xbdd3f8ee	-0.10350214
40	0x3ea5e023	0.32397565
41	0x3e5459a8	0.20737326
42	0x39742389	0.00023282891
43	0xbee168de	-0.4402532
44	0x3e1fd482	0.15608409
45	0xbc44ec00	-0.012019157
46	0xbfc9ead5	-1.577479
47	0xbca629f0	-0.02028367
48	0xbf11a826	-0.568972
49	0x3d845449	0.064613886
50	0xbf0ef584	-0.5584338
51	0xbf2b4bf8	-0.66912794
52	0x3d3f6b2c	0.046733066
53	0xbddd42f9	-0.1080379
54	0xbd8b32b2	-0.06796779
55	0xbf142d0a	-0.57881224
56	0xbfaa7e93	-1.3319877
57	0x3f3c9b74	0.736747
58	0x3e64b898	0.22336042
59	0xbfd22d81	-1.6420137
60	0xbcf325b6	-0.029681068
61	0xbde281c4	-0.11059907
62	0xbea869c7	-0.32893202
63	0x3dfe6ca6	0.12423067
64	0x3f80ef1f	1.0072974
65	0xbee692c9	-0.45033863
66	0xbc667e19	-0.01406815
67	0xbe815a2b	-0.25264105
68	0x3d71f0c8	0.059067518
69	0x3f6459b0	0.8919935
70	0x3e86e286	0.263447
71	0x3d35163c	0.044210657
72	0xbe998147	-0.29981443
73	0x3f3f801f	0.7480487
74	0x3dc1235e	0.09430574
75	0xbd8b2fa8	-0.06796199
76	0x3df1ede9	0.11812956
77	0xbd865148	-0.06558472
78	0xbe626c0c	-0.22111529
79	0xbce4b7c7	-0.027919663
80	0x3f2f6529	0.68513733
81	0xbe1bdbcc	-0.15220565
82	0xbe24e646	-0.16103467
83	0xbe8441cb	-0.25831446
84	0x3e35f012	0.17767361
85	0xbc191b17	-0.009344838
86	0xbf5bce30	-0.8586149
87	0x3dd02cb8	0.101647794
88	0x3f097b0b	0.53703374
89	0xbe9e0eda	-0.30870706
90	0xbecac6ef	-0.396049
91	0xbe19bcb3	-0.1501339
92	0xbeab498c	-0.3345455
93	0xc0144527	-2.3167207
94	0x3ccc041d	0.024904305
95	0x3ef4b616	0.4779517
96	0x3d8b3e62	0.06799008
97	0x3ed956b0	0.4244895
98	0x3ccb33d8	0.024804994
99	0xbf46efb9	-0.7770954
100	0xbdacd774	-0.08439532
101	0xbfca7e19	-1.5819732
102	0x3e3119a2	0.17294934
103	0x3da20c5e	0.07912515
104	0xbe98f219	-0.29872206
105	0x3ef3bfe5	0.4760734
106	0x3d9c4e15	0.076320805
107	0x3e4dc0d7	0.20093094
108	0xbe4b3248	-0.198434
109	0x3da4430f	0.08020603
110	0x3f606872	0.8765937
111	0xbb0b5840	-0.0021262318
112	0xbe33d3be	-0.17561242
113	0x3f1e4ea0	0.6183872
114	0xbe36d284	-0.17853743
115	0xbe806c75	-0.25082746
116	0xba509f00	-0.0007958263
117	0xbc17cca6	-0.009265101
118	0xbf100991	-0.562646
119	0xbf67faf6	-0.9061731
120	0x3e9ec33e	0.31008333
121	0x3f20e7bb	0.6285359
122	0xbed80792	-0.42193276
123	0xbf27170e	-0.65269554
124	0x3dc61ef4	0.096738726
125	0xbecf0c37	-0.40439007
126	0xbea6c367	-0.32570955
127	0x3d91fc32	0.071281806
128	0xbf55bc2b	-0.83490247
129	0xbd690885	-0.05689289
130	0x3f4a3b90	0.78997135
131	0xbdd5bc87	-0.10436349
132	0xbdd84944	-0.10560849
133	0x3f3d7205	0.74002105
134	0x3e7f5602	0.24935153
135	0xbea609e0	-0.3242941
136	0x3d644201	0.05572701
137	0xbe315320	-0.17316866
138	0x3cf6df20	0.030135691
139	0xbec2a2b1	-0.3801475
140	0xbe38953a	-0.18025675
141	0x3db78058	0.089600265
142	0xbec67d0b	-0.38767275
143	0x3d215d2e	0.039395504
144	0xbf27cfe0	-0.6555157
145	0x3d932def	0.071864955
146	0xbfd447bd	-1.6584393
147	0xbd74f071	-0.059799615
148	0x3ee6df7d	0.45092383
149	0x3e3e6401	0.18592836
150	0xbf360a62	-0.7110959
151	0xbda1d4c6	-0.079019114
152	0xbecc3ca2	-0.3989001
153	0xbf13851f	-0.57625
154	0x3e1cee58	0.15325296
155	0xbdb65b07	-0.08904081
156	0x3d6f166c	0.058370993
157	0xbf0882c8	-0.53324556
158	0xbd54c19a	-0.051942445
159	0x3f08c03a	0.53418314
160	0x3db12092	0.086487904
161	0x3e93f64a	0.2889884
162	0x3db057fa	0.0861053
163	0x3d11be1e	0.0355817
164	0x3d3f5634	0.04671307
165	0xbf001378	-0.50029707
166	0xbd3ea494	-0.046543673
167	0xbdca99aa	-0.0989259
168	0xbd027d46	-0.03185775
169	0x3dfa1f84	0.122130424
170	0x3d4fc104	0.050721183
171	0xbdace2a3	-0.08441665
172	0x3dc4c5ce	0.09608041
173	0xbddda36e	-0.10822187
174	0x3f32dd9f	0.69869417
175	0x3dcc687c	0.09980866
176	0xbcd18aa7	-0.02557881
177	0xbe5fca17	-0.21854435
178	0x3d5ab859	0.053398464
179	0x3e249811	0.16073634
180	0xbd98f6b8	-0.07468933
181	0x3bce182d	0.006289503
182	0x3d188d26	0.037243985
183	0x3e8fa074	0.28052104
184	0xbe2c2479	-0.16810788
185	0xbf612e17	-0.8796095
186	0xbeb07c76	-0.34469956
187	0x3ec90317	0.3926017
188	0xbe2955c7	-0.16536628
189	0x3e243b93	0.16038351
190	0x3dc42ca8	0.0957883
191	0xbdf87122	-0.12130953
192	0xbf298f15	-0.6623395
193	0x3ec2b41d	0.3802804
194	0xbe45ee2b	-0.19329135
195	0xbe9187b6	-0.28423852
196	0xbdc2dcf2	-0.09514798
197	0xbf0b6f5d	-0.544668
198	0x3eddc9f6	0.43318146
199	0x3e6a4fae	0.22881958
200	0xbe6a1e44	-0.22863108
201	0x3f07bd9c	0.53023696
202	0xbcd03578	-0.02541612
203	0x3e8bbafb	0.27291092
204	0xbe2d822e	-0.16944191
205	0xbd2d0942	-0.042245157
206	0xbe2c5dad	-0.1683261
207	0x3dd94cca	0.106103495
208	0xbeafd1ff	-0.34339902
209	0xbece58f7	-0.4030225
210	0xbf6daab4	-0.928386
211	0xbe10e361	-0.14149238
212	0xbf5746a6	-0.84092176
213	0x3e48b55e	0.19600436
214	0xc01abeff	-2.4179075
215	0x3d63d795	0.055625517
216	0xbdda985d	-0.10673592
217	0xbeea912c	-0.45813882
218	0xbf16be53	-0.5888416
219	0xbd65fd8a	-0.056149997
220	0x3e0844d7	0.1330751
221	0xbf95d34a	-1.1705105
222	0xbd645855	-0.055748302
223	0x3f41d77f	0.75719446
224	0x3e7ac148	0.24487793
225	0xbe9eab6f	-0.30990168
226	0x3dbb55f6	0.09147255
227	0x3e17b5fb	0.14815514
228	0x3d8819c0	0.066455364
229	0x3ebaecef	0.3650889
230	0xbf4ad119	-0.7922531
231	0x3dac283e	0.08406113
232	0x3e03cd73	0.12871341
233	0xbe86aa4f	-0.2630181
234	0xbe1f5ffb	-0.15563957
235	0xbef8c01f	-0.48584077
236	0x3db50fac	0.0884088
237	0x3dbf910e	0.09353839
238	0x3f1a544f	0.60284895
239	0x3cd3c5c8	0.025851145
240	0xbeddf20f	-0.4334874
241	0xbf3c9423	-0.7366354
242	0xbeb7bb94	-0.35885298
243	0xbe4a2244	-0.19739634
244	0x3db035c4	0.08604005
245	0x3c4a8796	0.012361428
246	0x3e50ae36	0.20378956
247	0xbf80063c	-1.0001903
248	0xbe74a958	-0.23892725
249	0xbf85732f	-1.0425776
250	0xbc93c540	-0.018038392
251	0x3da8edbe	0.08248471
252	0x3eb462b5	0.35231557
253	0xbde38143	-0.11108639
254	0xbe2c0d78	-0.16802013
255	0x3dbdff12	0.092771664

layers.2.bias f4 [24]
0	0xbd1307c0	-0.035896063
1	0xbd83eae9	-0.0644129
2	0x3e21b72e	0.15792534
3	0xbba2250d	-0.0049482645
4	0x3c515255	0.012775977
5	0x3d7c15f6	0.06154438
6	0xbc5958bd	-0.013265786
7	0x3dfe9224	0.12430218
8	0x3d97781e	0.073959574
9	0xbcbeb208	-0.023278251
10	0x3ba69deb	0.0050847433
11	0x3e187647	0.14888869
12	0xbc0af491	-0.008481161
13	0x3a0c4540	0.0005350895
14	0x3bf1ef42	0.007383258
15	0xbebe032e	-0.371118
16	0xbd05448b	-0.03253607
17	0x3e244d03	0.16045003
18	0xbd11a111	-0.035553996
19	0xbe42a16e	-0.19006893
20	0xbeee844e	-0.46585315
21	0xbde3475c	-0.11097595
22	0x3e23b075	0.15985282
23	0x3e79c5cc	0.2439186
