cnn/cnn.pth (torch, 40688 bytes, 4 tensors)

layers.0.weight f4 [64, 126]
-0.063286394 -0.01237455 -0.025110446 -0.037266064 -0.02935125 0.051742155 -0.019132517 -0.04772997
0.010980334 0.005231352 -0.080197595 0.07173873 -0.074959554 0.026451444 -0.079873875 0.031382952
-0.084462665 -0.08087408 -0.017873473 0.01037082 -0.034411915 -0.07541122 -0.014377579 -0.07650685
-0.04539585 -0.05981537 -0.08084514 0.0020673545 -0.024429586 0.08803634 -0.03612229 0.047378257
0.051839348 -0.021055833 0.034539822 -0.016371677 -0.03888228 0.02599486 0.03720721 -0.050182693
-0.028328521 -0.06782908 -0.033353124 0.07583394 -0.070935175 -0.049367607 -0.00708739 -0.083994724
0.016543116 -0.010134461 0.00650073 0.05369936 -0.05232631 0.040646955 -0.072109684 0.03555005
-0.008655933 -0.024511933 0.018510876 0.019852629 0.025669727 0.015151651 0.06656595 0.23548181
-0.4237633 0.36864138 0.09904739 -0.35886708 1.7648926 0.22287965 -0.3030584 0.92939925
0.4780095 -0.075968854 0.24181329 0.73175555 0.059808444 -0.16079666 -0.06626198 -0.30371964
-1.0563731 -0.08479151 -0.0570921 -0.31866464 -0.040331185 -0.09085379 0.04108693 0.16043007
-0.381369 -0.17281798 0.02331227 -0.086397365 -1.6003184 0.024492284 0.31429836 -1.0630019
0.3191185 0.34482512 -1.1394436 0.5531943 0.22390606 -1.4073622 -0.023920808 -0.041292574
-1.6762526 -0.015623831 0.4506223 -1.1540171 0.18061237 0.5021443 -1.17755 0.4710002
0.41362652 -1.255426 0.114209905 -0.05712183 -1.5457566 0.29146644 0.3229024 -1.5301654
0.27983186 0.20626159 -1.6362402 0.37884358 0.1001899 -1.9804839 0.019129941 0.29783705
1.3631667 -0.038540896 0.2982567 -3.2684798 0.077312246 0.23977196 -1.6487856 0.08128324
0.25608438 0.726587 0.21171288 0.12789845 1.8699911 -0.08930288 0.4841873 -1.9449954
-0.13167536 0.48973483 1.1005521 -0.22455491 0.5329585 1.1212503 -0.17193885 0.3559522
0.9848993 -0.08797666 0.29514632 2.1933718 -0.009399837 0.009884314 2.3611717 0.0006476413
-0.69564795 1.3277929 -0.0030840375 -0.95918673 0.34129208 0.0023572212 0.25042978 2.8575442
0.080492824 -0.15804702 1.9314201 0.2162417 -0.5603108 -0.4058274 0.08915594 -0.92138577
-2.1092105 -0.0019035271 0.1746411 3.0004084 0.061490968 0.09165411 2.0378418 0.17624828
0.10642121 1.6458097 0.13386941 0.0845989 1.1633102 0.0278759 0.063561454 0.5548006
0.12163937 -0.20656048 -2.2992835 -0.08511744 -0.39046746 -2.2282858 0.094604686 -0.56186485
-1.7967577 0.6472784 -0.9077885 -1.5899442 0.0013765943 -0.3407052 -2.8367093 -0.10028407
-0.39713636 -2.1958084 -0.09603697 -0.5457391 -1.5632035 0.045046 -0.91920465 -1.1766866
-0.28220588 -0.09884635 -2.1633236 -0.14498338 0.24165887 -1.907079 -0.046872523 0.53831613
-1.0673071 -0.13251096 0.57424587 -0.44912988 -0.33246315 0.19607508 -0.96036994 -0.08720967
0.47051916 -1.3647738 -0.2082285 0.81226456 -0.4248321 -0.18242683 0.98322755 0.8082952
-0.3374659 0.28170583 -0.02653609 -0.18343869 0.55885273 -0.6134001 -0.25801215 0.85252666
0.21491453 -0.27839404 0.85248494 1.1412615 -0.0135868825 -0.084608205 -0.021330904 -0.07686148
00000000: 4c9c 81bd a0be 4abc 6cb4 cdbc 4da4 18bd
00000010: 0872 f0bc 95ef 533d ccbb 9cbc 8080 43bd
00000020: dce6 333c c36b ab3b a33e a4bd c1eb 923d
00000030: 6584 99bd b3b0 d83c ea94 a3bd 698b 003d
00000040: c3fa acbd 4fa1 a5bd 646b 92bc 5fea 293c
00000050: 82f3 0cbd 3371 9abd f08f 6bbc a0af 9cbd
00000060: 00f1 39bd f600 75bd 2392 a5bd 747c 073b
00000070: 8e20 c8bc 664c b43d f7f4 13bd b40f 423d
00000080: 7f55 543d 487d acbc a179 0d3d e51d 86bc
00000090: 0743 1fbd 2cf3 d43c 9666 183d 5e8c 4dbd
000000a0: 3711 e8bc f9e9 8abd 499d 08bd d34e 9b3d
000000b0: 7646 91bd b035 4abd 563d e8bb 6d05 acbd
000000c0: 6e85 873c 030b 26bc 1304 d53b dcf3 5b3d
000000d0: 1d54 56bd 6c7d 263d 3eae 93bd ee9c 113d
000000e0: 9dd1 0dbc 40cd c8bc 1fa4 973c fba1 a23c
000000f0: 5249 d23c a13e 783c bb53 883d 2522 713e
00000100: 81f7 d8be 90be bc3e 5cd9 ca3d 6dbd b7be
00000110: 00e8 e13f 903a 643e 782a 9bbe 1ced 6d3f
00000120: a9bd f43e 8f95 9bbd e79d 773e 5554 3b3f
00000130: b3f9 743d e1a7 24be 5cb4 87bd 2481 9bbe
00000140: 3c37 87bf 2ca7 adbd 68d9 69bd 0328 a3be
00000150: 5032 25bd 8d11 babd c54a 283d c847 243e
00000160: cc42 c3be 32f7 30be 60f9 be3c 1af1 b0bd
00000170: 3cd7 ccbf 0ba4 c83c b7eb a03e 7210 88bf
00000180: 8063 a33e eb8c b03e 4ad9 91bf 249e 0d3f
00000190: a147 653e 7224 b4bf 92f5 c3bc 6722 29bd
000001a0: 728f d6bf 19fb 7fbc f7b7 e63e d5b6 93bf
000001b0: 73f2 383e 878c 003f f5b9 96bf f026 f13e
000001c0: dbc6 d33e cdb1 a0bf e2e6 e93d 94f8 69bd
000001d0: 5adb c5bf 173b 953e 7753 a53e 76dc c3bf
000001e0: 1f46 8f3e 3d36 533e 5270 d1bf c9f7 c13e
000001f0: 5d30 cd3d 7f80 fdbf 65b6 9c3c 197e 983e
00000200: 3f7c ae3f 0fdd 1dbd 1ab5 983e c62e 51c0
00000210: e255 9e3d c886 753e 680b d3bf d477 a63d
00000220: 7e1d 833e 9b01 3a3f 43cb 583e d0f7 023e
00000230: de5b ef3f 6ee4 b6bd 66e7 f73e 9cf5 f8bf
00000240: e8d5 06be 86be fa3e e4de 8c3f b9f1 65be
00000250: f86f 083f 2185 8f3f bd10 30be 5e3f b63e
00000260: 5c22 7c3f 1b2d b4bd 6b1d 973e 3460 0c40
00000270: c601 1abc d1f1 213c 701d 1740 79c6 293a
00000280: fc15 32bf 1ef5 a93f 901d 4abb 438d 75bf
00000290: d6bd ae3e 9c7b 1a3b 5538 803e 01e2 3640
000002a0: 6cd9 a43d 14d7 21be c638 f73f 776e 5d3e
000002b0: 8770 0fbf 9cc8 cfbe 6497 b63d f0df 6bbf
000002c0: 4efd 06c0 c57f f9ba 1ed5 323e b106 4040
000002d0: f4dd 7b3d 26b5 bb3d 006c 0240 6e7a 343e
000002e0: 5df3 d93d e4a9 d23f 1015 093e 3042 ad3d
000002f0: 59e7 943f 005c e43c 822c 823d 6a07 0e3f
00000300: 101e f93d 9784 53be 7627 13c0 0d52 aebd
00000310: 5aeb c7be 3c9c 0ec0 1ac0 c13d 60d6 0fbf
00000320: 28fc e5bf 0ab4 253f d464 68bf 4b83 cbbf
00000330: d76e b43a e970 aebe a58c 35c0 bc61 cdbd
00000340: 7555 cbbe 2088 0cc0 08af c4bd 8fb5 0bbf
00000350: 0d17 c8bf 2882 383d ff50 6bbf ab9d 96bf
00000360: 4a7d 90be f56f cabd e573 0ac0 8676 14be
00000370: 6c75 773e 2a1b f4bf 67fd 3fbd 16cf 093f
00000380: 859d 88bf f4b0 07be c701 133f 5af4 e5be
00000390: 9c38 aabe e8c7 483e ceda 75bf fc9a b2bd
000003a0: e3e7 f03e e8b0 aebf da39 55be 92f0 4f3f
000003b0: 9883 d9be 19ce 3abe cdb4 7b3f 6fec 4e3f
000003c0: 55c8 acbe bf3b 903e 3762 d9bc 5ad7 3bbe
000003d0: f910 0f3f ca07 1dbf 2b1a 84be 303f 5a3f
000003e0: 8e12 5c3e aa89 8ebe 743c 5a3f db14 923f
000003f0: 849b 5ebc 1147 adbd 26be aebc 8d69 9dbd

layers.0.bias f4 [64]
-0.21168162 0.12887543 0.3752474 -0.02375505 0.046808023 -0.02997581 0.16616279 -0.2557427
0.10227687 -0.17470895 0.6093989 -0.10465808 -0.054310247 0.26218653 -0.002177123 -0.08301663
0.80695266 -0.12893528 0.57225776 -0.07175216 -0.030329686 -0.06376285 0.13406616 0.019586014
0.66066295 0.63988656 -0.07210451 -0.074503765 -0.07231081 -0.43327528 0.16852269 -0.09369524
0.08361588 0.34979814 -0.24353191 -0.09787569 -0.193863 0.32679406 -0.0016897161 0.12709294
0.75141454 0.20473196 -0.01915502 0.023597138 -0.041414995 -0.059744008 -0.42458153 0.806659
-0.047435306 -0.06337865 0.49237156 0.45840105 -0.03188299 0.2320621 0.043961253 0.05247786
-0.039200604 0.17783332 -0.025531823 -0.10959283 0.5575071 0.21602668 -0.29488775 -0.1310453
00000000: 11c3 58be ecf7 033e 6d20 c03e f399 c2bc
00000010: c5b9 3f3d d48f f5bc 9426 2a3e b5f0 82be
00000020: 8976 d13d e7e6 32be 9101 1c3f fa56 d6bd
00000030: 6c74 5ebd 503d 863e 10ae 0ebb 9f04 aabd
00000040: 7394 4e3f 9c07 04be 7c7f 123f ccf2 92bd
00000050: f675 f8bc 1996 82bd a448 093e d972 a03c
00000060: 3521 293f 9bcf 233f 88ab 93bd 6e95 98bd
00000070: b117 94bd 42d6 ddbe 3691 2c3e 4ae3 bfbd
00000080: cd3e ab3d be18 b33e 6e60 79be 0d73 c8bd
00000090: 0684 46be 8d51 a73e 7779 ddba a724 023e
000000a0: b45c 403f 41a5 513e fdea 9cbc c94e c13c
000000b0: c5a2 29bd 22b6 74bd c062 d9be 3481 4e3f
000000c0: 864b 42bd aacc 81bd 2018 fc3e 8bb3 ea3e
000000d0: bd97 02bd b0a1 6d3e b710 343d 06f3 563d
000000e0: d090 20bd f019 363e 1d28 d1bc 3572 e0bd
000000f0: c9b8 0e3f 1936 5d3e 87fb 96be bd30 06be

layers.2.weight f4 [24, 64]
-0.0038485108 0.20442086 0.62904793 -0.07086422 0.2971605 0.035982147 -0.338978 -0.6547416
-0.11551649 -0.2506649 -3.173057 0.20002794 -0.12733708 -0.9007006 0.12414947 0.08713539
-2.2792017 -0.16383076 -0.4051501 0.030439094 -0.08571085 0.07908759 0.5842156 0.5203143
-0.060327873 0.45905313 0.0007342249 0.37006727 0.11588816 -1.7327514 -1.1628536 0.10271844
0.47569332 -1.6715468 -0.39585268 -0.0014518405 -0.37364522 -3.517789 -0.01410586 0.7519722
-0.50561917 -0.2689828 0.10878392 -0.17678061 0.22469679 0.0985374 -0.13108404 -0.35956103
0.0332067 0.024961337 -2.3799672 0.4598501 -0.57437694 -0.24578844 -0.21517205 0.3948361
0.51428574 -0.7600367 0.08157372 -0.3109474 0.727327 0.2733601 -1.6679732 -0.28940514
-0.18613954 -0.3276354 0.2744692 -0.031564757 -0.13273194 -0.072062105 -0.35109115 -1.2952344
0.033980764 0.14437911 0.7480244 0.151012 0.019981926 0.80857265 -0.051684186 0.09121722
0.21398115 -0.27171287 -0.40996155 -0.0014878958 0.08127726 0.076217234 0.35794806 0.25562176
0.062819555 0.44811323 0.071401134 -0.24795592 -0.11705655 -0.35867828 -0.93971455 -0.03985848
0.3348498 0.6563827 -0.08733879 -0.07279946 0.039464455 0.3213765 -0.1407774 -3.0197823
-0.42578706 -0.4072718 -0.027876431 0.29108208 0.06347816 0.08201476 -0.03996287 -0.35109082
0.024475873 -0.10849249 0.4232019 -2.0130606 0.58235914 -0.30308342 -0.13935599 -0.25517935
-0.3782003 -0.00025669683 0.00016593073 0.29983842 0.009548898 -2.1581202 -0.3828831 0.026968721
0.0028770787 -0.34317794 -0.31076282 0.04315122 0.1964708 -0.03242757 -0.024332676 -0.17163347
0.20173442 0.270682 0.67273104 -0.10551848 -0.07932786 -0.43679628 0.12439895 -0.008356661
0.8400063 -0.61068213 -0.055773582 0.05690518 -0.0035194876 -0.11854062 0.20016094 -0.24981584
-0.34201875 -0.7117058 0.06789461 -0.06804968 -0.11241485 0.5230497 0.6817776 0.09829509
0.33503932 0.034351725 0.24049346 -0.015197039 0.05668759 0.91361105 0.0039854404 -1.3100194
0.054113727 -0.7025918 -0.03184234 -0.0942878 -0.319223 0.026076222 -0.31510538 -0.066702016
-0.04806988 0.012683928 0.7900678 -1.1975733 0.0032599336 -0.08864015 0.29132676 -0.45203516
-0.33856723 -0.06388363 -0.11512346 -0.19990253 -0.5512662 0.30963576 0.47642723 -0.12405854
0.19471486 -0.24290483 -0.49224213 0.02024244 -0.039179835 0.0058809384 -0.3444556 0.46316698
0.65241086 0.08367709 -0.36089954 0.41374886 0.03520686 -0.2338523 -0.08535048 0.02669771
-1.3679627 -0.05977441 -0.5434209 0.03594269 0.08978793 0.030543383 0.5172457 -0.58070344
-0.07234708 -0.52219284 0.09837623 0.27319786 -0.04723376 0.2544871 -0.20776677 -0.10627526
-0.10418138 -0.06833491 0.2557746 0.01840315 0.098740466 0.17445476 -0.14443377 -0.9454962
-0.60348845 -1.5686938 0.00614615 0.4109823 0.21022126 0.007522977 -0.24925545 -0.34468457
0.12348318 0.034686476 -0.20046638 -0.6017517 0.5360927 -0.10430812 0.3831688 0.40270096
-0.1714326 -0.56646574 0.08967805 0.11392684 -1.1871265 -0.12099297 0.4110394 -0.586116
00000000: 4c37 7cbb b453 513e 4909 213f 4321 91bd
00000010: 6c25 983e 0462 133d 868e adbe 259d 27bf
00000020: e993 ecbd 2657 80be 5e13 4bc0 20d4 4c3e
00000030: a764 02be 5194 66bf 1442 fe3d 0a74 b23d
00000040: 71de 11c0 40c3 27be d56f cfbe 685b f93c
00000050: 2c89 afbd adf8 a13d 278f 153f 5133 053f
00000060: 5c1a 77bd 0309 eb3e 0079 403a 7579 bd3e
00000070: c656 ed3d ccca ddbf 63d8 94bf 0c5e d23d
00000080: 138e f33e 3ff5 d5bf 34ad cabe af4b beba
00000090: 6d4e bfbe 7423 61c0 441c 67bc 4081 403f
000000a0: 4270 01bf 1db8 89be 1bca de3d fa05 35be
000000b0: ea16 663e facd c93d e53a 06be 6218 b8be
000000c0: c003 083d b87b cc3c 6251 18c0 7971 eb3e
000000d0: 5e0a 13bf f7af 7bbe 1056 5cbe f527 ca3e
000000e0: 3ba8 033f c491 42bf 1f10 a73d 7f34 9fbe
000000f0: 1a32 3a3f dbf5 8b3e 2580 d5bf e92c 94be
00000100: 5d9b 3ebe d4bf a7be 3a87 8c3e 0c4a 01bd
00000110: e2ea 07be 4c95 93bd 38c2 b3be 3eca a5bf
00000120: 6a2f 0b3d 1ed8 133e 877e 3f3f e4a2 1a3e
00000130: 23b1 a33c 9efe 4e3f ccb2 53bd 18d0 ba3d
00000140: e01d 5b3e f31d 8bbe 7be6 d1be 8005 c3ba
00000150: b174 a63d c817 9c3d f844 b73e dbe0 823e
00000160: 8aa7 803d 196f e53e c23a 923d 28e8 7dbe
00000170: 58bb efbd aea4 b7be 2291 70bf a542 23bd
00000180: 6f71 ab3e b208 283f aede b2bd e217 95bd
00000190: 7ba5 213d 768b a43e f327 10be 1d44 41c0
000001a0: c300 dabe ee85 d0be 1d5d e4bc b608 953e
000001b0: d600 823d 5bf7 a73d 1bb0 23bd 2dc2 b3be
000001c0: a081 c83c 5031 debd ebad d83e fcd5 00c0
000001d0: 7d15 153f c02d 9bbe 56b3 0ebe dea6 82be
000001e0: 78a3 c1be 4495 86b9 b1fd 2d39 6c84 993e
000001f0: fb72 1c3c a41e 0ac0 4109 c4be 82ed dc3c
00000200: 5f8d 3c3b 05b5 afbe 4e1c 9fbe 55bf 303d
00000210: a42f 493e c6d2 04bd 5255 c7bc afc0 2fbe
00000220: 7893 4e3e d596 8a3e 1a38 2c3f 131a d8bd
00000230: a576 a2bd c3a3 dfbe e0c4 fe3d 60ea 08bc
00000240: a70a 573f aa55 1cbf d772 64bd 6815 693d
00000250: 34a7 66bb 6dc5 f2bd fdf6 4c3e b9cf 7fbe
00000260: 151d afbe 5a32 36bf 540c 8b3d a15d 8bbd
00000270: c239 e6bd 96e6 053f fa88 2e3f f04e c93d
00000280: 468a ab3e 65b4 0c3d eb43 763e 00fd 78bc
00000290: 3f31 683d 6ae2 693f 4c98 823b b7ae a7bf
000002a0: 5ba6 5d3d 0edd 33bf 1d6d 02bd f619 c1bd
000002b0: 3271 a3be cd9d d53c 7e55 a1be 119b 88bd
000002c0: ece4 44bd 40d0 4f3c e241 4a3f 154a 99bf
000002d0: 9ca4 553b f888 b5bd c828 953e 2771 e7be
000002e0: af58 adbe 6cd5 82bd d9c5 ebbd 40b3 4cbe
000002f0: c81f 0dbf 9488 9e3e 45ee f33e 6712 febd
00000300: 5563 473e 0bbc 78be 2907 fcbe 79d3 a53c
00000310: 097b 20bd e3b4 c03b 7c5c b0be 3924 ed3e
00000320: 6604 273f e55e ab3d d3c7 b8be e4d6 d33e
00000330: 1235 103d fa76 6fbe 3ccc aebd 28b5 da3c
00000340: 6719 afbf 03d6 74bd a21d 0bbf a438 133d
00000350: bce2 b73d 1e36 fa3c 376a 043f fba8 14bf
00000360: b52a 94bd 6eae 05bf 7a79 c93d 97e0 8b3e
00000370: 3078 41bd 224c 823e d0c0 54be d8a6 d9bd
00000380: 0c5d d5bd 2cf3 8bbd e3f4 823e 34c2 963c
00000390: 7138 ca3d 45a4 323e 72e6 13be 0a0c 72bf
000003a0: 387e 1abf f5ca c8bf a565 c93b 466c d23e
000003b0: 3e44 573e 4e83 f63b d23c 7fbe 7f7a b0be
000003c0: c0e4 fc3d 6813 0e3d 0f47 4dbe 660c 1abf
000003d0: 5f3d 093f 7f9f d5bd b32e c43e d22e ce3e
000003e0: 078c 2fbe e603 11bf 20a9 b73d 7a52 e93d
000003f0: c3f3 97bf 2acb f7bd c273 d23e b30b 16bf

layers.2.bias f4 [24]
-0.07883141 0.10326351 -0.017666304 -0.093091324 0.13739127 0.038637828 -0.16626543 -0.07846234
0.03185945 -0.019436497 0.11782796 0.18524168 0.04013896 -0.01718956 0.03836664 -0.24417885
0.024726901 0.17237319 -0.004339011 -0.21943484 -0.28193155 0.050017517 0.18460757 0.1880019
00000000: 5d72 a1bd d27b d33d edb8 90bc aaa6 bebd
00000010: 4cb0 0c3e b342 1e3d 7c41 2abe ddb0 a0bd
00000020: 0e7f 023d 4a39 9fbc c94f f13d ffaf 3d3e
00000030: c068 243d 1fd1 8cbc 5726 1d3d 050a 7abe
00000040: 1290 ca3c 9982 303e 432e 8ebb 87b3 60be
00000050: 5559 90be 2bdf 4c3d c409 3d3e 9283 403e
